model/model.pth (torch, 16787 bytes, 4 tensors)

linear1.weight f4 [256, 11]
000000 64 73 6e 3e 56 aa 0e bf 93 f0 7e be 40 9b 72 be
       0.23286206 -0.5572866 -0.2489646 -0.23692036
000010 7d 38 62 bf 7d 95 34 3f 93 79 54 bf 6b 75 66 bf
       -0.88367444 0.705406 -0.8299801 -0.90022916
000020 16 97 36 bf b0 90 ba 3e 91 17 a0 bf c2 33 00 3d
       -0.7132429 0.36438513 -1.2507192 0.03129936
000030 ef fd 99 bd 84 ca 9d 3d 10 fc b7 bd 27 e9 e2 bd
       -0.07519137 0.077046424 -0.08983624 -0.110796265
000040 a6 75 3b 3e 3e c8 e9 bd 73 6e 9b bd 19 72 95 be
       0.18306598 -0.11415146 -0.07589426 -0.29188612
000050 0b 6c a3 be 9b 22 1a 3e 70 a3 78 3e e1 91 e9 3e
       -0.31918368 0.15052263 0.24281096 0.4561911
000060 8e 53 15 bf c0 a5 20 bf 09 41 08 bf ed bc 00 3e
       -0.5833062 -0.62752914 -0.53224236 0.1257207
000070 6b 05 f5 3d 16 be 96 3e 23 0e 20 3c db 58 30 bf
       0.11963924 0.294419 0.009768995 -0.6888558
000080 72 cc cd be 1c b1 a1 be 12 3b 2d bd a3 3f 01 3f
       -0.40195042 -0.31580436 -0.042292662 0.50487727
000090 e4 46 4b be 27 3a 46 be 55 0c 9b 3e 04 d7 00 bf
       -0.19851261 -0.19358121 0.30282846 -0.5032809
0000a0 ef dd e8 3e fb 11 e3 be 9c ce 10 bf ea 9f 7d bf
       0.45481822 -0.44349656 -0.5656526 -0.99072134
0000b0 53 15 e5 3e a8 07 04 bf 63 70 8f 3e 25 c7 7d bd
       0.44742832 -0.5157418 0.28015432 -0.061957497
0000c0 0e fd c7 be 34 e0 6b be 03 2e 16 be f0 bf 8c 3e
       -0.39060253 -0.23034745 -0.1466599 0.27490187
0000d0 e8 3e f9 3d 3b 8d 72 be 52 da c2 3e 60 63 c6 bd
       0.121702015 -0.23686688 0.3805719 -0.09686923
0000e0 0d ec 8d 3e 97 13 73 be 14 1c ab be 1b 06 bc be
       0.27719155 -0.23737942 -0.3341986 -0.36723408
0000f0 05 11 43 be 2c 18 b8 be d3 6c 94 3d e3 e7 38 3e
       -0.19049461 -0.35955942 0.07247319 0.18057208
000100 dd 86 af 3d 7d 97 3a 3e bc 4c 8f 3d dc 84 a6 be
       0.08570645 0.1822185 0.06997058 -0.3252324
000110 23 01 81 3e 7c 8f 99 3d 2c 7c bf be 99 8a a9 3c
       0.2519618 0.074980706 -0.37399423 0.020695971
000120 5e 8d ea bc 42 54 2a bd 29 29 e2 3d c1 77 89 be
       -0.028631862 -0.04158426 0.11043007 -0.26849177
000130 4b e3 8b be da b6 e3 3e 7c 37 2c 3f 1a 58 3e 3f
       -0.27321848 0.44475442 0.6727216 0.7435318
000140 6f 4c 2a bf d1 17 07 bf 7e 0e 09 bf 7c 06 0c bf
       -0.6652288 -0.52770716 -0.5353774 -0.54697394
000150 d3 c8 ec bd c3 6a 0b bc 91 b3 42 be c1 14 03 be
       -0.11561742 -0.008509341 -0.19013812 -0.12800886
000160 0b 05 21 be 03 ca 83 3e c2 05 bb 3d 94 b0 c8 be
       -0.1572458 0.2574006 0.091319576 -0.39197218
000170 3d fc 4e 3f bd 86 2c bf 98 a7 aa 3e c6 c7 c6 bf
       0.80853635 -0.67393094 0.3333099 -1.5529716
000180 be ec 6e bf 4c 0d 1c 3f 1e 7c 67 bf 44 5f 7c bc
       -0.9332999 0.6095779 -0.9042376 -0.0154035725
000190 9a 15 5b 3e 2e 43 27 3e 5a fe b0 be 55 6c 28 be
       0.21394959 0.16334221 -0.34569055 -0.16447575
0001a0 b5 11 c1 be 7c b6 6e be be ca 3c 3b 79 24 ca 3b
       -0.37708822 -0.233118 0.0028807367 0.0061688987
0001b0 ab d0 58 be c7 ab 96 bc 70 35 93 3d 9b 2e b1 3f
       -0.2117335 -0.018392457 0.07187927 1.3842348
0001c0 18 70 2c be de 0f a7 bd 4b 23 37 3d 9b 9e 3a be
       -0.16839635 -0.08157323 0.044711392 -0.18224566
0001d0 3c ca 06 bf 3c 66 00 3f db 94 b8 3c 8b 16 ec be
       -0.52652335 0.50156 0.022531917 -0.4611095
0001e0 63 9c 7c be 4a 14 ea be 98 93 c2 bd 8a bd 0b be
       -0.24669032 -0.45718604 -0.095008075 -0.13646522
0001f0 be de c3 be 8e 97 dc 3e f2 c0 4a 3f 65 a6 90 3e
       -0.38255876 0.43084377 0.7920066 0.2825195
000200 48 81 f0 3e 79 e9 6c bd 98 94 0b bf d3 d4 54 be
       0.46973634 -0.057839844 -0.5452361 -0.20784311
000210 db 77 92 3d 54 17 c3 3e 3f d1 ba 3e 19 55 2e bf
       0.07151767 0.38103735 0.36487767 -0.680986
000220 a4 ee 0c bf a5 0c 9e be 40 e1 63 bf 54 5b 1d 3e
       -0.55051637 -0.30869022 -0.8901558 0.1536687
000230 17 2f 87 3e c8 cf 9c bc b5 de fd bc 2d bd 35 bf
       0.26403114 -0.019142047 -0.030989984 -0.70991784
000240 90 fe a8 be ee c0 43 bf 45 51 39 bf 27 53 04 bf
       -0.33006716 -0.7646626 -0.7238963 -0.5168938
000250 3c 71 32 bf 06 64 26 3f a4 5e 3a bf c4 e7 2d bf
       -0.6970403 0.64996374 -0.7280066 -0.6793177
000260 3e 6f 34 bf c5 80 2c 3f 9c b5 3c bd 63 f0 7a bd
       -0.7048224 0.67383987 -0.046071634 -0.061264407
000270 42 2f 72 bd 6b 2d b5 3e c6 10 5c be 5f 42 a5 be
       -0.0591271 0.35386214 -0.21490774 -0.322772
000280 4e 67 fb 3c c0 a8 24 bf c3 6f bd bd 3b 52 2a bd
       0.030688908 -0.6431999 -0.092498325 -0.041582327
000290 f5 3c 1f bf a8 44 d6 3d 60 83 a7 3c 4e 8d 1b 3e
       -0.6220239 0.10462314 0.020448387 0.15190622
0002a0 85 3c 41 bc 4b bd 07 be be 0c 63 3d b2 92 e8 3d
       -0.011794214 -0.13255803 0.055432074 0.11356105
0002b0 81 85 50 3d 86 4c bc be f1 fc 19 be ed 01 b9 bd
       0.05090857 -0.36777133 -0.15037896 -0.090335704
0002c0 7f 97 f9 3e 6c b3 4a bd e6 91 e8 3c 64 a8 5e 3f
       0.48748395 -0.049487516 0.028389882 0.86975694
0002d0 8f ac 05 3f 8a a4 ca bd cf 48 13 bf 64 9b 74 bf
       0.5221643 -0.098946646 -0.5753297 -0.9554961
0002e0 58 b4 0f bf 5f cb c6 3c cd f8 14 3f ab 64 2b bf
       -0.5613456 0.024266897 0.5819214 -0.6695048
0002f0 68 c3 08 3c 2e 32 5a bd 53 30 14 3b fa 42 89 bd
       0.00834737 -0.05327051 0.0022611811 -0.06702228
000300 e0 74 cf bd dd d5 52 bd 70 33 00 be 87 41 d6 bd
       -0.10129714 -0.051473487 -0.12519622 -0.10461717
000310 1c a3 33 bd 23 d1 3e bd 55 63 82 bd d9 bd 73 be
       -0.043856725 -0.046586167 -0.06366602 -0.2380289
000320 e5 38 8c be 1a 2f e2 be 8f 0d 15 3f 0a 4c 0e bf
       -0.27387157 -0.4417656 0.58223814 -0.55584776
000330 66 ad eb be c7 47 0d 3f 03 64 f6 be 9a 21 91 bf
       -0.4603073 0.5518765 -0.48123178 -1.1338379
000340 be 12 85 bf 28 07 63 3e c3 88 72 bf da 19 97 be
       -1.0396345 0.22170699 -0.9473993 -0.2951191
000350 bc f4 9e bf a3 b0 8d 3d b9 2d a4 bf f6 3c 4b 3f
       -1.2418437 0.069184564 -1.2826453 0.79389894
000360 14 bc 1e bf d4 05 ac bf 12 ee a3 bf 64 df 3d 3f
       -0.62005734 -1.3439279 -1.2807028 0.7416899
000370 2a e5 59 be 7a 34 29 3e 4a e7 a8 bd f2 19 23 3e
       -0.21278825 0.16523924 -0.0824724 0.15927866
000380 c9 8a 38 be 7c 5d 02 3e ab a1 22 be d5 42 dd bd
       -0.18021692 0.12730974 -0.15881984 -0.10803763
000390 56 2c 49 be b6 87 26 be 70 8f 49 be 87 29 64 3d
       -0.19645819 -0.16262707 -0.19683623 0.055703666
0003a0 ac 93 2b 3d 15 6b 5d bd ab 2e ab bb c4 28 40 bd
       0.041888878 -0.0540572 -0.005224069 -0.046913877
0003b0 3f 29 91 be 0b 39 73 3d 9b b9 9f 3d e3 cb 02 3e
       -0.2835178 0.059380572 0.07799073 0.12773089
0003c0 06 bb 82 3d 08 52 53 3c 49 bc ba 3e 69 51 54 bf
       0.06383328 0.012897976 0.36471775 -0.8293672
0003d0 df 51 1a 3e 28 08 8b bd 8f 9a b0 be 71 d7 ad bd
       0.15070294 -0.06788665 -0.3449292 -0.08488358
0003e0 c9 14 f2 3b a9 33 40 bb 30 3f 54 bd 83 72 04 be
       0.0073877317 -0.0029327667 -0.051818073 -0.12934308
0003f0 9e 36 c7 bd 0b ac 79 be 37 4a d1 be ee e0 00 bf
       -0.09727214 -0.24382035 -0.40876934 -0.50343215

linear1.bias f4 [256]
000000 1e a0 e2 3e ec 4e ee be 36 13 58 be 50 0a 94 be
       0.44262785 -0.46544588 -0.21101078 -0.28914118
000010 59 46 6d bf e3 10 01 bf 09 74 07 bf 58 87 19 bf
       -0.92685467 -0.5041639 -0.5291143 -0.59972143
000020 4e a0 49 be 1c c0 c6 be 85 f5 81 bd 05 bc ce be
       -0.19690058 -0.38818443 -0.06345657 -0.40377823
000030 99 9b 51 bf 8c 67 b1 3c 65 e8 b0 be 8b 70 0c bf
       -0.8187805 0.02165582 -0.34552303 -0.54859227
000040 2b 05 46 3d a0 98 b3 3c e6 4d 21 bd 1e 23 e2 3e
       0.048344772 0.021923363 -0.03938093 0.44167417
000050 fc b9 92 be 28 87 e1 be b0 29 1a bf f0 b3 91 be
       -0.2865752 -0.4404843 -0.6021986 -0.28457594
000060 14 49 1f 3f 1c e4 f8 be 6a f1 87 be c4 86 41 be
       0.62220883 -0.48611534 -0.26551372 -0.18899065
000070 ff bb a9 3f 08 b1 9c be 84 71 05 bf cf 7d 4e bd
       1.3260497 -0.30603814 -0.52126336 -0.05041295
000080 84 80 9d be ba 31 09 bf f7 4a fb be 45 5d 38 3e
       -0.30762112 -0.535915 -0.4908063 0.1800433
000090 a3 19 39 3e d0 30 fc bd 65 b3 10 bf ea 08 6a be
       0.18076186 -0.12313998 -0.56523734 -0.22854963
0000a0 ec 12 bb be 3a f5 f4 3e f6 d1 95 be b0 5c 65 bf
       -0.36537874 0.47843343 -0.2926175 -0.89594555
0000b0 ca c1 77 bd 72 39 11 bf c9 07 b4 be 0e 8f e6 be
       -0.060487546 -0.5672828 -0.3516219 -0.45031017
0000c0 99 7b 9c be 0e 67 a6 be 9b 04 98 be a7 73 bc be
       -0.30563048 -0.325005 -0.29691014 -0.36806986
0000d0 62 b6 71 3d de 38 6e be aa 93 b3 be c8 01 b4 be
       0.059011824 -0.2326388 -0.35073596 -0.3515761
0000e0 37 6e 43 3e 7f 8c 72 3e f3 29 1c be b0 7e 7f be
       0.19085012 0.23686408 -0.15250377 -0.24950671
0000f0 3e 65 08 bf ba da ab be f4 c6 d7 be 69 0e bd 3e
       -0.53279483 -0.33565313 -0.42143977 0.36925057
000100 d9 74 4d be be 29 43 bf 66 23 1e 3f 74 f1 b5 be
       -0.20064105 -0.7623557 0.61772764 -0.35535777
000110 30 3b 17 bd fa 19 2b 3d 8e 79 18 bf d7 f8 39 bf
       -0.03692168 0.04177282 -0.5956048 -0.72645324
000120 fd 8e 01 bf d2 3e 04 bf 12 ac 00 3d 6e 08 96 3e
       -0.5060881 -0.51658356 0.0314141 0.29303306
000130 7d 9a 36 bf 0a bb 16 be 1a f8 ed 3b 1f 72 2a bd
       -0.7132948 -0.14719787 0.007262242 -0.04161274
000140 be 56 8a be 92 cd 16 bf 65 c7 e3 3e 25 89 19 bf
       -0.27019304 -0.58907425 0.44488063 -0.5997489
000150 51 ae a0 be 36 0e f0 be 1a f9 dd be a7 89 b8 bd
       -0.31382993 -0.46885842 -0.43354112 -0.0901063
000160 6a af 15 3f 5a dc 15 bf c1 53 c9 be b2 93 1c 40
       0.58470786 -0.58539355 -0.39321712 2.4465146
000170 8a cc 1e bf 21 3b d9 be 3a fd ab be 00 45 38 bd
       -0.6203085 -0.42427924 -0.33591634 -0.04498768
000180 b5 f2 3f be f6 fd b2 be 91 85 1e be 4e bd 81 be
       -0.18744929 -0.34959382 -0.15480639 -0.2533974
000190 f1 a1 77 3d 35 d3 14 bf 8a 3b a1 be 7c 1a 83 be
       0.060457174 -0.58134776 -0.31490737 -0.25606143
0001a0 b2 1a 64 be a8 41 99 bd 3f 63 40 bf 84 d0 54 bf
       -0.22275808 -0.07483226 -0.7515144 -0.8313067
0001b0 d4 d3 c8 be 5d a6 7e be 8f 30 a3 be d8 d8 01 bf
       -0.39224112 -0.2486815 -0.31872985 -0.507215
0001c0 64 71 26 40 2f 34 b4 be 63 c4 01 3d d4 52 50 bd
       2.6006708 -0.35196063 0.03168143 -0.05086024
0001d0 51 93 d0 be 7c 16 b7 be 79 3b 90 3e 71 96 3a bc
       -0.40737393 -0.35759342 0.28170374 -0.011388407
0001e0 4c f6 88 be a8 b8 9f be f7 49 02 be 6b 45 b9 be
       -0.2675041 -0.3119557 -0.12723528 -0.36185774
0001f0 d4 1b c2 be ac 15 d8 be 45 69 f4 3e 87 c7 44 bf
       -0.37911856 -0.42204034 0.47736564 -0.76866955
000200 1e 70 ad 3e 8c fb 83 be e2 06 71 bd 0f e8 e7 be
       0.338746 -0.25777853 -0.058844455 -0.45294234
000210 21 c3 51 bf 77 22 57 bf ff eb 98 be 1c cf 39 bf
       -0.8193837 -0.84036964 -0.2986755 -0.7258165
000220 6c e7 88 3e 7b c0 3e be 60 c9 bb 3e 32 4f b9 be
       0.2673906 -0.18628113 0.36677074 -0.36193234
000230 e4 c3 aa bc e9 08 0a bf 7c 7d a6 be 9b 90 c7 bc
       -0.020845361 -0.53919846 -0.32517612 -0.024360945
000240 e3 56 39 3f 89 af e8 3d 30 c2 24 3f 86 51 6d bf
       0.72398204 0.11361606 0.64358807 -0.9270252
000250 eb 55 ae 3d 78 93 39 bd 2b b3 e1 be d8 30 49 be
       0.08512481 -0.045306653 -0.44082007 -0.19647539
000260 ac 5c a4 3d 29 35 5e 3e 32 f7 f8 be 2f 33 23 3e
       0.08025488 0.21699966 -0.48626095 0.15937494
000270 1a 0c 5f 3f dd e7 f2 bd 7f 42 5c 3e 99 50 b5 be
       0.8712784 -0.11860631 0.21509741 -0.35413054
000280 87 fb ae be f0 fc a1 be eb 32 99 be b2 29 15 bf
       -0.34176275 -0.31638288 -0.2992166 -0.58266747
000290 05 b2 ab be d4 58 11 bf 61 de 3a bf ac be 22 bf
       -0.33534256 -0.56776166 -0.72995573 -0.6357219
0002a0 07 46 40 bf c9 70 2e be a9 5c 19 bf ee b4 66 be
       -0.75106853 -0.17035212 -0.59907013 -0.22529957
0002b0 e0 34 91 be cc d0 90 be e2 7b 3e bf 0b 85 59 bf
       -0.28360653 -0.282843 -0.7440778 -0.8496863
0002c0 18 ce 5b be c5 28 2d be c5 2c b7 3e 04 2f 9f 3e
       -0.21465337 -0.16910084 0.35776344 0.31090558
0002d0 37 ee de 3e 8c 68 c4 be 81 58 08 be ea 31 25 bf
       0.43541119 -0.38361013 -0.13315012 -0.6452929
0002e0 9a 4e 5f bf ad af 62 be 49 cf 07 3f be 8f ae be
       -0.8722931 -0.22137327 0.5305067 -0.34094042
0002f0 6e 2d 2d bf fe f3 86 be 40 8d 75 be 58 7d b0 be
       -0.67647445 -0.26358026 -0.23979664 -0.3447063
000300 f5 ab 5d be ff a6 53 be e8 ef 1f bc e8 5e 07 3e
       -0.21647628 -0.20669173 -0.009761788 0.13219798
000310 ca c0 c7 3e 35 8a f4 be e5 79 5a be 3f f0 44 be
       0.39014274 -0.47761694 -0.21335562 -0.19232272
000320 54 e5 42 bf b5 d5 ad be a5 bc 23 bf fe 36 f5 3e
       -0.76131177 -0.33952108 -0.63959724 0.47893518
000330 b0 ba b9 3d 84 8f 88 be 1a b1 a5 3e 3f cf 6e bd
       0.09068811 -0.26671994 0.3236168 -0.058303114
000340 e1 76 1e bf 3e 98 d0 bd 18 ca f0 be 74 12 92 3d
       -0.61900145 -0.10185288 -0.47029185 0.07132426
000350 8b 88 12 be 00 0e e8 3b bd 58 cf 3e b2 c2 0e bf
       -0.143099 0.007081747 0.4049739 -0.5576583
000360 4e 24 b8 be 81 c2 36 bf 9c 6d 0f bf 01 f2 13 3e
       -0.35965198 -0.7139054 -0.56026626 0.14447786
000370 a3 f5 0e bf df 41 03 bf 25 c9 ef bc ed a8 23 bf
       -0.5584356 -0.51272386 -0.029270718 -0.63929635
000380 ab f2 ab be 16 ee 23 3f 40 a6 3b bf 61 f2 85 bf
       -0.33583578 0.64035165 -0.7330055 -1.0464593
000390 56 e7 aa bd c7 a9 cf 3e 53 1a 21 bf f3 c6 f7 be
       -0.08344905 0.40559217 -0.6293079 -0.48393974
0003a0 c8 08 1a be 76 76 f0 bc f4 61 b3 bd 16 81 20 3e
       -0.15042412 -0.029353362 -0.087589175 0.15674242
0003b0 61 62 8b 3e 8b b9 19 bf 78 b8 37 3f b6 91 18 bf
       0.27223495 -0.6004874 0.7176585 -0.5959734
0003c0 1a bb a4 be a1 53 0a bf f9 c1 d2 be 0d 55 59 bf
       -0.32173997 -0.5403386 -0.41163614 -0.848954
0003d0 7a 81 f0 3d 14 88 4f bf ea 6f 39 bf 75 66 ee 3e
       0.11743446 -0.81067014 -0.7243639 0.46562544
0003e0 4b 50 56 be cb fd 50 be e9 60 8f 3e cc fe e5 be
       -0.20929067 -0.20409314 0.28003624 -0.44920957
0003f0 d4 f6 fb 3e 7b 8d 23 be 50 cf de bd c9 75 84 be
       0.49211752 -0.1597194 -0.108793855 -0.25871113

linear2.weight f4 [3, 256]
000000 6a 1a b8 3e b5 f9 dd bd 97 94 27 bf 1d 72 91 be
       0.35957652 -0.108386435 -0.65461105 -0.28407374
000010 b7 1e 96 bd d2 aa 72 bb 56 30 8b bd 7b ae 7c bb
       -0.07330077 -0.0037028086 -0.06796329 -0.0038556147
000020 d5 9a 00 bf 79 96 3f 3d 24 bf 14 3c f1 e8 88 bd
       -0.50236255 0.04677436 0.009078775 -0.06685055
000030 76 1c cd bb 6b 44 d4 3e 2b 3c 07 be 48 86 d3 3c
       -0.0062594963 0.4145845 -0.13206546 0.025820866
000040 19 93 0c bf 45 e8 4b 3b a3 e1 50 bd 48 f8 16 3f
       -0.54911953 0.0031113785 -0.050996434 0.589726
000050 dc 86 85 3b d8 de af 3a 86 b8 f6 bd f2 ad 35 bd
       0.0040749144 0.0013417853 -0.12046914 -0.04435534
000060 32 59 46 3d 43 d7 4f 3b 57 63 5c bf 08 66 11 3c
       0.048424907 0.0031714 -0.8608908 0.008874424
000070 a4 38 65 3e 21 55 d2 3b 6c 78 b6 be 8a 98 24 bd
       0.22384888 0.0064188396 -0.3563875 -0.040184535
000080 57 7b d4 be fb ad 0f bc c3 8b 63 bd a2 5e 35 be
       -0.4150035 -0.0087695075 -0.05555321 -0.17711881
000090 a2 e7 dc 3e 8f 5b a5 bd b5 e9 9e bd f3 0e c5 bc
       0.43145472 -0.08074104 -0.0775942 -0.02405498
0000a0 08 b2 95 bd 73 12 d4 3e 31 48 c1 be 20 00 ed 39
       -0.073093474 0.41420326 -0.3775039 0.00045204256
0000b0 0d 16 f9 bd 7c 32 a6 bb 11 68 cd bb 9a dd 99 be
       -0.12162409 -0.005071936 -0.006268509 -0.3005188
0000c0 83 45 fd ba 38 d6 a8 3d 26 fc c2 b7 d3 99 65 3c
       -0.0019323084 0.08243984 -2.3244018e-05 0.014013725
0000d0 e4 a6 67 3e db a9 52 3d 19 36 eb bd fa e8 dd 3c
       0.22622257 0.051431518 -0.11484928 0.027088631
0000e0 6a fa 0d be b8 ab aa bc 55 be b1 bc 4b e6 8a be
       -0.13865057 -0.020833835 -0.021697203 -0.27128825
0000f0 de 0e f6 3d b0 3f 48 3e 6d 5b 02 3d 8e 29 dc 3e
       0.120145544 0.19555545 0.03182547 0.43000454
000100 99 db f2 39 54 86 c1 bc 37 b4 59 3e fa 06 92 bc
       0.0004632145 -0.023623623 0.21260153 -0.017825592
000110 e4 8c 83 3c 2b 5e d5 bc bb 10 c4 bd 08 bc f4 bc
       0.016058393 -0.02604588 -0.095735036 -0.029874817
000120 8d 84 1d bd 7e aa 81 3a 43 f7 03 bf 43 8a b5 be
       -0.03845649 0.000989273 -0.51549166 -0.35457048
000130 ab 35 e8 bd 82 43 16 3c 96 a7 af bd 7e d8 8f be
       -0.11338361 0.009171369 -0.08576886 -0.28094858
000140 c2 f4 3b 3c b4 14 d3 bc 5a d8 8e bc c4 2b 0e 3d
       0.011471929 -0.025766708 -0.017437149 0.034709707
000150 f4 5e 40 bd 8b 1c aa be 6e da 6f 3c 98 57 04 3e
       -0.046965554 -0.33224902 0.01463948 0.1292404
000160 4c 59 19 3e 9b 05 ea b9 97 b0 11 3e 92 03 20 3f
       0.1497547 -0.00044636134 0.1422752 0.6250545
000170 e9 44 b7 3c 48 a8 31 bc ea be aa 3b 5c ad 5d bb
       0.022371726 -0.010843344 0.005210747 -0.0033825254
000180 bb c1 56 bd 56 ea 29 bf 03 ac 07 be b4 98 bb bd
       -0.05243085 -0.66373193 -0.13249211 -0.09159985
000190 9e 42 84 be 80 90 0c be 88 8d f8 bc 8b 3f 37 bf
       -0.25832075 -0.13726997 -0.030340925 -0.71581334
0001a0 2c 70 f8 bd c5 f7 95 bc a8 49 78 3d 49 26 f1 be
       -0.1213077 -0.018306622 0.06061712 -0.47099522
0001b0 ae bd 63 bd 1d 0f 5f bb 53 ac 06 bd 1e 5f d9 bc
       -0.055600815 -0.0034036108 -0.032879185 -0.026534613
0001c0 43 fd be 3e 7c 3c 64 be 89 aa a3 3b f3 40 df 3d
       0.37302598 -0.22288698 0.0049946946 0.1090106
0001d0 d7 46 aa be 69 8f d8 bd 00 98 bd 3e 45 9b 7a bc
       -0.33257172 -0.10574228 0.3703003 -0.015295808
0001e0 81 8d 92 3d de 52 88 bd 01 81 54 b9 f6 59 36 3c
       0.07155896 -0.06656431 -0.00020265953 0.011129847
0001f0 9d 92 c7 3a 44 82 f5 3d da db 23 3f f5 a0 c0 3e
       0.0015226189 0.11987737 0.6400734 0.376228
000200 a8 55 ce 3e e8 42 a9 be c8 c9 08 be 83 cd c9 bd
       0.40299726 -0.33058858 -0.13358223 -0.098536514
000210 1c 28 54 bc ff 7f 7c be 0e 93 ab bb 54 ae 89 3a
       -0.012949016 -0.24658202 -0.005236036 0.0010504224
000220 45 ec 0e 3e 37 92 8f be 9a fb f6 3e fb 99 1b bd
       0.13957317 -0.2804124 0.48238832 -0.037988644
000230 0d 8d 0f 3c f6 8b 3e bd eb 38 10 3e 3a c4 ba be
       0.0087616565 -0.046520196 0.14084212 -0.36477834
000240 78 39 02 3f ec ad 88 be 25 3d d8 3d 6d 9d 26 bd
       0.5086894 -0.26695192 0.105585374 -0.040677477
000250 13 4a 80 3d 6e 72 6f 3b 6a fe 9a be 16 e0 66 be
       0.062641285 0.0036536711 -0.30272228 -0.2254642
000260 69 ac 21 3e 12 05 33 be 23 25 8c be 66 47 3d be
       0.15788426 -0.17482403 -0.27372083 -0.18484268
000270 f9 99 ba 3e b2 c2 14 be ad 5a 12 3e 3c 85 a5 bd
       0.36445597 -0.14527395 0.14292403 -0.08082053
000280 18 10 41 bb 3c 38 90 be 9f 1f 3b be e8 6a 32 3c
       -0.0029459056 -0.28167903 -0.18273781 0.010889746
000290 0b 5c 57 be eb c8 05 be 45 1d 17 bd 01 5e 64 bc
       -0.21031205 -0.13064925 -0.036893148 -0.013938428
0002a0 23 a9 9f be 17 a1 ad 38 94 c1 da be 82 23 3c 3d
       -0.3118373 8.279288e-05 -0.42725813 0.0459323
0002b0 b4 0b 08 3d e9 27 22 bf fb 7f e7 bb af ae 3a be
       0.033214286 -0.6334215 -0.007064817 -0.18230699
0002c0 83 f9 e8 be 0e 2e ef be ce cc 35 3f 72 d7 02 3d
       -0.45502862 -0.46714824 0.7101563 0.031943746
0002d0 43 4c ca 3e 89 72 4b be 86 96 b1 be 85 b6 1d be
       0.39511308 -0.1986791 -0.34685153 -0.15401657
0002e0 a5 ee 54 bd 64 83 aa 3d 26 98 0d 3e 6e fd 04 bd
       -0.0519854 0.08325842 0.13827571 -0.032468252
0002f0 b2 25 ae be fa 0f ab 3c 0f 69 0a bf 32 e9 73 3d
       -0.34013134 0.020881642 -0.54066557 0.059548564
000300 5c cb 37 be 51 ed 41 bf 6d 18 25 bf 62 18 20 be
       -0.17948669 -0.7575274 -0.64490396 -0.15634301
000310 c2 61 93 3e ad 70 c3 be 20 49 af bb 5f ef a3 be
       0.2878552 -0.38171902 -0.0053492934 -0.32018563
000320 6f 5f 81 bd f4 bb 2e bc d8 96 3c bf 66 79 a0 3e
       -0.06317031 -0.010664929 -0.7366767 0.3134262
000330 97 dd a3 be 0f 4e dc be 08 dc d9 37 c0 7c 06 be
       -0.32004997 -0.43028304 2.5970876e-05 -0.13133526
000340 64 a8 51 bc 89 13 08 bf 60 c2 46 3d 61 2e bb be
       -0.012796495 -0.5315481 0.048525214 -0.36558822
000350 62 db 95 be e1 f9 10 3e 3d a9 d9 3e f1 a5 09 3d
       -0.29268938 0.14157821 0.4251193 0.03360552
000360 be 25 7e 3b 5f c4 3d 3d c1 e1 b9 bb fe a1 3f bf
       0.003877982 0.046329852 -0.005672664 -0.74856555
000370 26 91 af bc 71 0b 8c bd b3 f0 67 3e 06 d1 27 3c
       -0.021431517 -0.0683812 0.22650413 0.010242706
000380 a5 0a cb bc fd 59 32 3f 3f 19 3e 3b 34 42 e3 bc
       -0.02478535 0.6966856 0.0029006747 -0.027741529
000390 e2 88 8b be 55 b9 a4 3e 64 65 2d 3b 28 07 e0 bc
       -0.2725287 0.32172647 0.0026458139 -0.027347162
0003a0 5a ae a5 bc 7e 1b 44 3c 34 92 cf be e1 60 7d be
       -0.020224739 0.011969445 -0.40541232 -0.24743988
0003b0 52 0b 9f 3e 2c 35 0a 3e 51 5a a2 3e 54 e8 f2 3e
       0.31063324 0.13496846 0.3170953 0.47442877
0003c0 57 77 b1 3e 4c 61 d5 3c 5f 2e 44 bd 9d 28 eb bd
       0.34661362 0.026047371 -0.047895785 -0.11482356
0003d0 11 2a 0c 3d 66 c5 da bd 68 e5 69 3c 80 5e 9b 3e
       0.034219805 -0.10682182 0.014275886 0.30345535
0003e0 b4 4d 45 3b 25 12 01 3d f6 6c 0d bf 0d 15 10 bd
       0.003010613 0.031511445 -0.55244386 -0.035176326
0003f0 b2 1b 15 3f 29 e3 7b 3d 23 7a 91 bd a1 d0 d0 be
       0.58245385 0.061495934 -0.07103374 -0.4078417

linear2.bias f4 [3]
000000 89 cc 30 3f d3 80 93 3c c1 f9 6f 3d
       0.69062096 0.018005764 0.058587793
